…
Files already downloaded and verified
Running test for every 1 epoch
Model: 

LinearClassifierDSC(
  (layers): ModuleList(
    (0): Linear(in_features=1024, out_features=150, bias=True)
    (1): Linear(in_features=1174, out_features=100, bias=True)
    (2): Linear(in_features=1274, out_features=10, bias=True)
  )
  (relu_activation): ReLU()
  (softmax_activation): LogSoftmax()
)


Summary: 

----------------------------------------------------------------
        Layer (type)               Output Shape         Param #
================================================================
            Linear-1                  [-1, 150]         153,750
              ReLU-2                  [-1, 150]               0
            Linear-3                  [-1, 100]         117,500
              ReLU-4                  [-1, 100]               0
            Linear-5                   [-1, 10]          12,750
            Linear-6                   [-1, 10]          12,750
        LogSoftmax-7                   [-1, 10]               0
================================================================
Total params: 296,750
Trainable params: 296,750
Non-trainable params: 0
----------------------------------------------------------------
Input size (MB): 0.00
Forward/backward pass size (MB): 0.00
Params size (MB): 1.13
Estimated Total Size (MB): 1.14
----------------------------------------------------------------


Train Epoch: 1 | Loss: 2.101033 | Acc: 0.3038| MSE: 0.0848 || V Loss: 1.8425| V Acc: 0.3591| V MSE: 0.0785| CS: ({'0': 0.46, '1': 0.56, '2': 0.51, '3': 0.4, '4': 0.33, '5': 0.59, '6': 0.39, '7': 0.55, '8': 0.51, '9': 0.53}, 0.48)
…
