…
    "layers": [
      25,
      10,
      10
    ]
  }
} 

Model: 

LinearClassifier(
  (layers): ModuleList(
    (0): Linear(in_features=784, out_features=25, bias=True)
    (1): Linear(in_features=25, out_features=10, bias=True)
    (2): Linear(in_features=10, out_features=10, bias=True)
  )
  (relu_activation): ReLU()
  (softmax_activation): Softmax(dim=-1)
)


Summary: 

----------------------------------------------------------------
        Layer (type)               Output Shape         Param #
================================================================
            Linear-1                   [-1, 25]          19,625
              ReLU-2                   [-1, 25]               0
            Linear-3                   [-1, 10]             260
              ReLU-4                   [-1, 10]               0
            Linear-5                   [-1, 10]             110
           Softmax-6                   [-1, 10]               0
================================================================
Total params: 19,995
Trainable params: 19,995
Non-trainable params: 0
----------------------------------------------------------------
Input size (MB): 0.00
Forward/backward pass size (MB): 0.00
Params size (MB): 0.08
Estimated Total Size (MB): 0.08
----------------------------------------------------------------


Train Epoch: 1 | Loss: -0.798040 | Acc: 0.8088| MSE: 0.0306
…
