…
Files already downloaded and verified
Running test for every 1 epoch
Model: 

LinearClassifier(
  (layers): ModuleList(
    (0): Linear(in_features=1024, out_features=30, bias=True)
    (1): Linear(in_features=30, out_features=15, bias=True)
    (2): Linear(in_features=15, out_features=10, bias=True)
  )
  (relu_activation): ReLU()
  (softmax_activation): LogSoftmax()
)


Summary: 

----------------------------------------------------------------
        Layer (type)               Output Shape         Param #
================================================================
            Linear-1                   [-1, 30]          30,750
              ReLU-2                   [-1, 30]               0
            Linear-3                   [-1, 15]             465
              ReLU-4                   [-1, 15]               0
            Linear-5                   [-1, 10]             160
        LogSoftmax-6                   [-1, 10]               0
================================================================
Total params: 31,375
Trainable params: 31,375
Non-trainable params: 0
----------------------------------------------------------------
Input size (MB): 0.00
Forward/backward pass size (MB): 0.00
Params size (MB): 0.12
Estimated Total Size (MB): 0.12
----------------------------------------------------------------


Train Epoch: 1 | Loss: 2.131667 | Acc: 0.2332| MSE: 0.0861 || V Loss: 2.0611| V Acc: 0.2273| V MSE: 0.0844| CS: ({'0': 0.3, '1': 0.41, '2': 0.24, '3': 0.42, '4': 0.24, '5': 0.17, '6': 0.23, '7': 0.3, '8': 0.24, '9': 0.41}, 0.3)
…
