…
      50,
      25,
      10
    ]
  }
} 

Model: 

LinearClassifierGSC(
  (layers): ModuleList(
    (0): Linear(in_features=784, out_features=50, bias=True)
    (1): Linear(in_features=834, out_features=25, bias=True)
    (2): Linear(in_features=859, out_features=10, bias=True)
  )
  (relu_activation): ReLU()
  (softmax_activation): Softmax(dim=-1)
)


Summary: 

----------------------------------------------------------------
        Layer (type)               Output Shape         Param #
================================================================
            Linear-1                   [-1, 50]          39,250
              ReLU-2                   [-1, 50]               0
            Linear-3                   [-1, 25]          20,875
              ReLU-4                   [-1, 25]               0
            Linear-5                   [-1, 10]           8,600
           Softmax-6                   [-1, 10]               0
================================================================
Total params: 68,725
Trainable params: 68,725
Non-trainable params: 0
----------------------------------------------------------------
Input size (MB): 0.00
Forward/backward pass size (MB): 0.00
Params size (MB): 0.26
Estimated Total Size (MB): 0.27
----------------------------------------------------------------


Train Epoch: 1 | Loss: -0.649621 | Acc: 0.6522| MSE: 0.0650
…
