…
Files already downloaded and verified
Running test for every 1 epoch
Model: 

LinearClassifier(
  (layers): ModuleList(
    (0): Linear(in_features=1024, out_features=150, bias=True)
    (1): Linear(in_features=150, out_features=100, bias=True)
    (2): Linear(in_features=100, out_features=10, bias=True)
  )
  (relu_activation): ReLU()
  (softmax_activation): LogSoftmax()
)


Summary: 

----------------------------------------------------------------
        Layer (type)               Output Shape         Param #
================================================================
            Linear-1                  [-1, 150]         153,750
              ReLU-2                  [-1, 150]               0
            Linear-3                  [-1, 100]          15,100
              ReLU-4                  [-1, 100]               0
            Linear-5                   [-1, 10]           1,010
        LogSoftmax-6                   [-1, 10]               0
================================================================
Total params: 169,860
Trainable params: 169,860
Non-trainable params: 0
----------------------------------------------------------------
Input size (MB): 0.00
Forward/backward pass size (MB): 0.00
Params size (MB): 0.65
Estimated Total Size (MB): 0.66
----------------------------------------------------------------


Train Epoch: 1 | Loss: 2.154665 | Acc: 0.1937| MSE: 0.0866 || V Loss: 2.1028| V Acc: 0.1982| V MSE: 0.0850| CS: ({'1': 0.31, '2': 0.21, '3': 0.14, '4': 0.13, '6': 0.14, '7': 0.36, '8': 0.43, '9': 0.5}, 0.28)
…
