…
Training on 6000 samples (10% of 60000) 
Test on 10000 samples (100% of 60000)

Model: 

LinearClassifier(
  (layers): ModuleList(
    (0): Linear(in_features=784, out_features=100, bias=True)
    (1): Linear(in_features=100, out_features=50, bias=True)
    (2): Linear(in_features=50, out_features=10, bias=True)
  )
  (relu_activation): ReLU()
  (softmax_activation): LogSoftmax()
)


Summary: 

----------------------------------------------------------------
        Layer (type)               Output Shape         Param #
================================================================
            Linear-1                  [-1, 100]          78,500
              ReLU-2                  [-1, 100]               0
            Linear-3                   [-1, 50]           5,050
              ReLU-4                   [-1, 50]               0
            Linear-5                   [-1, 10]             510
        LogSoftmax-6                   [-1, 10]               0
================================================================
Total params: 84,060
Trainable params: 84,060
Non-trainable params: 0
----------------------------------------------------------------
Input size (MB): 0.00
Forward/backward pass size (MB): 0.00
Params size (MB): 0.32
Estimated Total Size (MB): 0.33
----------------------------------------------------------------


Train Epoch: 1 | Loss: 13.714104 | Acc: 0.2531| MSE: 1820.7541
…
