…
      25,
      10,
      10
    ]
  }
} 

Model: 

LinearClassifierGSC(
  (layers): ModuleList(
    (0): Linear(in_features=784, out_features=25, bias=True)
    (1): Linear(in_features=809, out_features=10, bias=True)
    (2): Linear(in_features=819, out_features=10, bias=True)
  )
  (relu_activation): ReLU()
  (softmax_activation): Softmax(dim=-1)
)


Summary: 

----------------------------------------------------------------
        Layer (type)               Output Shape         Param #
================================================================
            Linear-1                   [-1, 25]          19,625
              ReLU-2                   [-1, 25]               0
            Linear-3                   [-1, 10]           8,100
              ReLU-4                   [-1, 10]               0
            Linear-5                   [-1, 10]           8,200
           Softmax-6                   [-1, 10]               0
================================================================
Total params: 35,925
Trainable params: 35,925
Non-trainable params: 0
----------------------------------------------------------------
Input size (MB): 0.00
Forward/backward pass size (MB): 0.00
Params size (MB): 0.14
Estimated Total Size (MB): 0.14
----------------------------------------------------------------


Train Epoch: 1 | Loss: -0.886979 | Acc: 0.8938| MSE: 0.0174
…
