…
      10,
      10,
      10
    ]
  }
} 

Model: 

LinearClassifierDSC(
  (layers): ModuleList(
    (0): Linear(in_features=784, out_features=10, bias=True)
    (1): Linear(in_features=794, out_features=10, bias=True)
    (2): Linear(in_features=804, out_features=10, bias=True)
  )
  (relu_activation): ReLU()
  (softmax_activation): Softmax(dim=-1)
)


Summary: 

----------------------------------------------------------------
        Layer (type)               Output Shape         Param #
================================================================
            Linear-1                   [-1, 10]           7,850
              ReLU-2                   [-1, 10]               0
            Linear-3                   [-1, 10]           7,950
              ReLU-4                   [-1, 10]               0
            Linear-5                   [-1, 10]           8,050
           Softmax-6                   [-1, 10]               0
================================================================
Total params: 23,850
Trainable params: 23,850
Non-trainable params: 0
----------------------------------------------------------------
Input size (MB): 0.00
Forward/backward pass size (MB): 0.00
Params size (MB): 0.09
Estimated Total Size (MB): 0.09
----------------------------------------------------------------


Train Epoch: 1 | Loss: -0.818991 | Acc: 0.8280| MSE: 0.0290
…
