…
Files already downloaded and verified
Running test for every 1 epoch
Model: 

LinearClassifierGSC(
  (layers): ModuleList(
    (0): Linear(in_features=1024, out_features=150, bias=True)
    (1): Linear(in_features=1174, out_features=100, bias=True)
    (2): Linear(in_features=1274, out_features=10, bias=True)
  )
  (relu_activation): ReLU()
  (softmax_activation): LogSoftmax()
)


Summary: 

----------------------------------------------------------------
        Layer (type)               Output Shape         Param #
================================================================
            Linear-1                  [-1, 150]         153,750
              ReLU-2                  [-1, 150]               0
            Linear-3                  [-1, 100]         117,500
              ReLU-4                  [-1, 100]               0
            Linear-5                   [-1, 10]          12,750
        LogSoftmax-6                   [-1, 10]               0
================================================================
Total params: 284,000
Trainable params: 284,000
Non-trainable params: 0
----------------------------------------------------------------
Input size (MB): 0.00
Forward/backward pass size (MB): 0.00
Params size (MB): 1.08
Estimated Total Size (MB): 1.09
----------------------------------------------------------------


Train Epoch: 1 | Loss: 3.294094 | Acc: 0.2338| MSE: 0.1054 || V Loss: 3.1760| V Acc: 0.2492| V MSE: 0.1050| CS: ({'0': 0.7, '1': 0.72, '2': 0.51, '3': 0.68, '4': 0.44, '5': 0.65, '6': 0.78, '7': 0.73, '8': 0.6, '9': 0.71}, 0.65)
…
