…
    "layers": [
      50,
      25,
      10
    ]
  }
} 

Model: 

LinearClassifier(
  (layers): ModuleList(
    (0): Linear(in_features=784, out_features=50, bias=True)
    (1): Linear(in_features=50, out_features=25, bias=True)
    (2): Linear(in_features=25, out_features=10, bias=True)
  )
  (relu_activation): ReLU()
  (softmax_activation): Softmax(dim=-1)
)


Summary: 

----------------------------------------------------------------
        Layer (type)               Output Shape         Param #
================================================================
            Linear-1                   [-1, 50]          39,250
              ReLU-2                   [-1, 50]               0
            Linear-3                   [-1, 25]           1,275
              ReLU-4                   [-1, 25]               0
            Linear-5                   [-1, 10]             260
           Softmax-6                   [-1, 10]               0
================================================================
Total params: 40,785
Trainable params: 40,785
Non-trainable params: 0
----------------------------------------------------------------
Input size (MB): 0.00
Forward/backward pass size (MB): 0.00
Params size (MB): 0.16
Estimated Total Size (MB): 0.16
----------------------------------------------------------------


Train Epoch: 1 | Loss: -0.729811 | Acc: 0.7342| MSE: 0.0483
…
