…
Files already downloaded and verified
Running test for every 1 epoch
Model: 

LinearClassifierDSC(
  (layers): ModuleList(
    (0): Linear(in_features=1024, out_features=15, bias=True)
    (1): Linear(in_features=1039, out_features=10, bias=True)
    (2): Linear(in_features=1049, out_features=10, bias=True)
  )
  (relu_activation): ReLU()
  (softmax_activation): LogSoftmax()
)


Summary: 

----------------------------------------------------------------
        Layer (type)               Output Shape         Param #
================================================================
            Linear-1                   [-1, 15]          15,375
              ReLU-2                   [-1, 15]               0
            Linear-3                   [-1, 10]          10,400
              ReLU-4                   [-1, 10]               0
            Linear-5                   [-1, 10]          10,500
            Linear-6                   [-1, 10]          10,500
        LogSoftmax-7                   [-1, 10]               0
================================================================
Total params: 46,775
Trainable params: 46,775
Non-trainable params: 0
----------------------------------------------------------------
Input size (MB): 0.00
Forward/backward pass size (MB): 0.00
Params size (MB): 0.18
Estimated Total Size (MB): 0.18
----------------------------------------------------------------


Train Epoch: 1 | Loss: 2.078534 | Acc: 0.2968| MSE: 0.0844 || V Loss: 1.8618| V Acc: 0.3410| V MSE: 0.0786| CS: ({'0': 0.41, '1': 0.53, '2': 0.3, '3': 0.4, '4': 0.35, '5': 0.46, '6': 0.3, '7': 0.6, '8': 0.41, '9': 0.43}, 0.42)
…
