…
Files already downloaded and verified
Running test for every 1 epoch
Model: 

LinearClassifierGSC(
  (layers): ModuleList(
    (0): Linear(in_features=1024, out_features=30, bias=True)
    (1): Linear(in_features=1054, out_features=15, bias=True)
    (2): Linear(in_features=1069, out_features=10, bias=True)
  )
  (relu_activation): ReLU()
  (softmax_activation): LogSoftmax()
)


Summary: 

----------------------------------------------------------------
        Layer (type)               Output Shape         Param #
================================================================
            Linear-1                   [-1, 30]          30,750
              ReLU-2                   [-1, 30]               0
            Linear-3                   [-1, 15]          15,825
              ReLU-4                   [-1, 15]               0
            Linear-5                   [-1, 10]          10,700
        LogSoftmax-6                   [-1, 10]               0
================================================================
Total params: 57,275
Trainable params: 57,275
Non-trainable params: 0
----------------------------------------------------------------
Input size (MB): 0.00
Forward/backward pass size (MB): 0.00
Params size (MB): 0.22
Estimated Total Size (MB): 0.22
----------------------------------------------------------------


Train Epoch: 1 | Loss: 2.925110 | Acc: 0.2065| MSE: 0.1017 || V Loss: 2.9715| V Acc: 0.2371| V MSE: 0.0996| CS: ({'0': 0.46, '1': 0.53, '2': 0.31, '3': 0.6, '4': 0.49, '5': 0.53, '6': 0.41, '7': 0.53, '8': 0.51, '9': 0.69}, 0.51)
…
